…
ns to training samples...: 100%|██████████| 893/893 [00:20<00:00, 44.45it/s]merging reactions from chunks: 100%|██████████| 52/52 [01:46<00:00,  1.36s/it]merging reactions from chunks: 100%|██████████| 52/52 [01:46<00:00,  2.04s/it]
/home/linmin001/.conda/envs/megan/lib/python3.6/site-packages/scipy/sparse/_index.py:126: SparseEfficiencyWarning: Changing the sparsity structure of a csr_matrix is expensive. lil_matrix is more efficient.
  self._set_arrayXarray(i, j, x)





































































































Megan(
  (atom_embedding): Linear(in_features=36, out_features=1024, bias=True), 37,888 params
  (bond_embedding): Linear(in_features=11, out_features=32, bias=True), 384 params
  (encoder): MeganEncoder(
    (MultiHeadGraphConv_1): MultiHeadGraphConvLayer(
      (atoms_att): Linear(in_features=1024, out_features=128, bias=True), 131,200 params
      (final_att): Linear(in_features=288, out_features=8, bias=True), 2,312 params
      (graph_conv_1): Linear(in_features=1024, out_features=128, bias=True), 131,200 params
      (graph_conv_2): Linear(in_features=1024, out_features=128, bias=True), 131,200 params
      (graph_conv_3): Linear(in_features=1024, out_features=128, bias=True), 131,200 params
      (graph_conv_4): Linear(in_features=1024, out_features=128, bias=True), 131,200 params
      (graph_conv_5): Linear(in_features=1024, out_features=128, bias=True), 131,200 params
      (graph_conv_6): Linear(in_features=1024, out_features=128, bias=True), 131,200 params
      (graph_conv_7): Linear(in_features=1024, out_features=128, bias=True), 131,200 params
      (graph_conv_8): Linear(in_features=1024, out_features=128, bias=True), 131,200 params
    ), 1,183,112 params
    (MultiHeadGraphConv_2): MultiHeadGraphConvLayer(
      (atoms_att): Linear(in_features=1024, out_features=128, bias=True), 131,200 params
      (final_att): Linear(in_features=288, out_features=8, bias=True), 2,312 params
      (graph_conv_1): Linear(in_features=1024, out_features=128, bias=True), 131,200 params
      (graph_conv_2): Linear(in_features=1024, out_features=128, bias=True), 131,200 params
      (graph_conv_3): Linear(in_features=1024, out_features=128, bias=True), 131,200 params
      (graph_conv_4): Linear(in_features=1024, out_features=128, bias=True), 131,200 params
      (graph_conv_5): Linear(in_features=1024, out_features=128, bias=True), 131,200 params
      (graph_conv_6): Linear(in_features=1024, out_features=128, bias=True), 131,200 params
      (graph_conv_7): Linear(in_features=1024, out_features=128, bias=True), 131,200 params
      (graph_conv_8): Linear(in_features=1024, out_features=128, bias=True), 131,200 params
    ), 1,183,112 params
    (MultiHeadGraphConv_3): MultiHeadGraphConvLayer(
      (atoms_att): Linear(in_features=1024, out_features=128, bias=True), 131,200 params
      (final_att): Linear(in_features=288, out_features=8, bias=True), 2,312 params
      (graph_conv_1): Linear(in_features=1024, out_features=128, bias=True), 131,200 params
      (graph_conv_2): Linear(in_features=1024, out_features=128, bias=True), 131,200 params
      (graph_conv_3): Linear(in_features=1024, out_features=128, bias=True), 131,200 params
      (graph_conv_4): Linear(in_features=1024, out_features=128, bias=True), 131,200 params
      (graph_conv_5): Linear(in_features=1024, out_features=128, bias=True), 131,200 params
      (graph_conv_6): Linear(in_features=1024, out_features=128, bias=True), 131,200 params
      (graph_conv_7): Linear(in_features=1024, out_features=128, bias=True), 131,200 params
      (graph_conv_8): Linear(in_features=1024, out_features=128, bias=True), 131,200 params
    ), 1,183,112 params
    (MultiHeadGraphConv_4): MultiHeadGraphConvLayer(
      (atoms_att): Linear(in_features=1024, out_features=128, bias=True), 131,200 params
      (final_att): Linear(in_features=288, out_features=8, bias=True), 2,312 params
      (graph_conv_1): Linear(in_features=1024, out_features=128, bias=True), 131,200 params
      (graph_conv_2): Linear(in_features=1024, out_features=128, bias=True), 131,200 params
      (graph_conv_3): Linear(in_features=1024, out_features=128, bias=True), 131,200 params
      (graph_conv_4): Linear(in_features=1024, out_features=128, bias=True), 131,200 params
      (graph_conv_5): Linear(in_features=1024, out_features=128, bias=True), 131,200 params
      (graph_conv_6): Linear(in_features=1024, out_features=128, bias=True), 131,200 params
      (graph_conv_7): Linear(in_features=1024, out_features=128, bias=True), 131,200 params
      (graph_conv_8): Linear(in_features=1024, out_features=128, bias=True), 131,200 params
    ), 1,183,112 params
    (MultiHeadGraphConv_5): MultiHeadGraphConvLayer(
      (atoms_att): Linear(in_features=1024, out_features=128, bias=True), 131,200 params
      (final_att): Linear(in_features=288, out_features=8, bias=True), 2,312 params
      (graph_conv_1): Linear(in_features=1024, out_features=128, bias=True), 131,200 params
      (graph_conv_2): Linear(in_features=1024, out_features=128, bias=True), 131,200 params
      (graph_conv_3): Linear(in_features=1024, out_features=128, bias=True), 131,200 params
      (graph_conv_4): Linear(in_features=1024, out_features=128, bias=True), 131,200 params
      (graph_conv_5): Linear(in_features=1024, out_features=128, bias=True), 131,200 params
      (graph_conv_6): Linear(in_features=1024, out_features=128, bias=True), 131,200 params
      (graph_conv_7): Linear(in_features=1024, out_features=128, bias=True), 131,200 params
      (graph_conv_8): Linear(in_features=1024, out_features=128, bias=True), 131,200 params
    ), 1,183,112 params
    (MultiHeadGraphConv_6): MultiHeadGraphConvLayer(
      (atoms_att): Linear(in_features=1024, out_features=128, bias=True), 131,200 params
      (final_att): Linear(in_features=288, out_features=8, bias=True), 2,312 params
      (graph_conv_1): Linear(in_features=1024, out_features=128, bias=True), 131,200 params
      (graph_conv_2): Linear(in_features=1024, out_features=128, bias=True), 131,200 params
      (graph_conv_3): Linear(in_features=1024, out_features=128, bias=True), 131,200 params
      (graph_conv_4): Linear(in_features=1024, out_features=128, bias=True), 131,200 params
      (graph_conv_5): Linear(in_features=1024, out_features=128, bias=True), 131,200 params
      (graph_conv_6): Linear(in_features=1024, out_features=128, bias=True), 131,200 params
      (graph_conv_7): Linear(in_features=1024, out_features=128, bias=True), 131,200 params
      (graph_conv_8): Linear(in_features=1024, out_features=128, bias=True), 131,200 params
    ), 1,183,112 params
  ), 7,098,672 params
  (decoder): MeganDecoder(
    (MultiHeadGraphConv_1): MultiHeadGraphConvLayer(
      (atoms_att): Linear(in_features=1024, out_features=128, bias=True), 131,200 params
      (final_att): Linear(in_features=288, out_features=8, bias=True), 2,312 params
      (graph_conv_1): Linear(in_features=1024, out_features=128, bias=True), 131,200 params
      (graph_conv_2): Linear(in_features=1024, out_features=128, bias=True), 131,200 params
      (graph_conv_3): Linear(in_features=1024, out_features=128, bias=True), 131,200 params
      (graph_conv_4): Linear(in_features=1024, out_features=128, bias=True), 131,200 params
      (graph_conv_5): Linear(in_features=1024, out_features=128, bias=True), 131,200 params
      (graph_conv_6): Linear(in_features=1024, out_features=128, bias=True), 131,200 params
      (graph_conv_7): Linear(in_features=1024, out_features=128, bias=True), 131,200 params
      (graph_conv_8): Linear(in_features=1024, out_features=128, bias=True), 131,200 params
    ), 1,183,112 params
    (MultiHeadGraphConv_2): MultiHeadGraphConvLayer(
      (atoms_att): Linear(in_features=1024, out_features=128, bias=True), 131,200 params
      (final_att): Linear(in_features=288, out_features=8, bias=True), 2,312 params
      (graph_conv_1): Linear(in_features=1024, out_features=128, bias=True), 131,200 params
      (graph_conv_2): Linear(in_features=1024, out_features=128, bias=True), 131,200 params
      (graph_conv_3): Linear(in_features=1024, out_features=128, bias=True), 131,200 params
      (graph_conv_4): Linear(in_features=1024, out_features=128, bias=True), 131,200 params
      (graph_conv_5): Linear(in_features=1024, out_features=128, bias=True), 131,200 params
      (graph_conv_6): Linear(in_features=1024, out_features=128, bias=True), 131,200 params
      (graph_conv_7): Linear(in_features=1024, out_features=128, bias=True), 131,200 params
      (graph_conv_8): Linear(in_features=1024, out_features=128, bias=True), 131,200 params
    ), 1,183,112 params
    (fc_atom_1): Linear(in_features=1024, out_features=128, bias=True), 131,200 params
    (fc_atom_2): Linear(in_features=128, out_features=47, bias=True), 6,063 params
    (fc_atom_bond): Linear(in_features=1024, out_features=128, bias=True), 131,200 params
    (fc_bond_1): Linear(in_features=160, out_features=128, bias=True), 20,608 params
    (fc_bond_2): Linear(in_features=128, out_features=7, bias=True), 903 params
  ), 2,656,198 params
), 9,793,142 params
/home/linmin001/.conda/envs/megan/lib/python3.6/site-packages/numpy/core/fromnumeric.py:61: FutureWarning: Series.nonzero() is deprecated and will be removed in a future version.Use Series.to_numpy().nonzero() instead
  return bound(*args, **kwds)
models/uspto_50k train epoch 1:   0%|          | 0/50
…
